…
sentence_split_token= __eol__ 
split_strategy=load_split
overlength_strategy=truncate
tokenize_strategy=by_space
language=Chinese


10 Mar 11:56    INFO Loading data from restored
10 Mar 11:56    INFO Restore finished!
10 Mar 11:56    INFO Vocab size: 27127
10 Mar 11:56    INFO train: 109728 cases, dev: 7979 cases, test: 9976 cases

10 Mar 11:56    INFO Build [poem] DataLoader for [train]
10 Mar 11:56    INFO batch_size = [[64]], shuffle = [True]

10 Mar 11:56    INFO Build [poem] DataLoader for [evaluation]
10 Mar 11:56    INFO batch_size = [[64, 64]], shuffle = [False]

10 Mar 11:56    INFO CVAE(
  (token_embedder): Embedding(27127, 256, padding_idx=0)
  (encoder): BasicRNNEncoder(
    (encoder): GRU(256, 512, num_layers=2, batch_first=True, dropout=0.5, bidirectional=True)
  )
  (decoder): BasicRNNDecoder(
    (decoder): GRU(256, 512, num_layers=2, batch_first=True, dropout=0.5)
  )
  (dropout): Dropout(p=0.5, inplace=False)
  (vocab_linear): Linear(in_features=512, out_features=27127, bias=True)
  (loss): CrossEntropyLoss()
  (MLP_mean_linear1): Linear(in_features=2048, out_features=512, bias=True)
  (MLP_mean_linear2): Linear(in_features=512, out_features=256, bias=True)
  (MLP_logvar_linear1): Linear(in_features=2048, out_features=512, bias=True)
  (MLP_logvar_linear2): Linear(in_features=512, out_features=256, bias=True)
  (hidden_to_mean): Linear(in_features=3072, out_features=256, bias=True)
  (hidden_to_logvar): Linear(in_features=3072, out_features=256, bias=True)
  (latent_to_hidden): Linear(in_features=2304, out_features=512, bias=True)
)
Trainable parameters: 35823863
10 Mar 12:00    INFO epoch 0 training [time: 228.95s, train loss: 24.9759]
10 Mar 12:03    INFO epoch 1 training [time: 230.75s, train loss: 23.7338]
10 Mar 12:04    INFO epoch 1 evaluating [time: 4.79s, valid_loss: 22.354808]
10 Mar 12:04    INFO valid ppl: 5111752102.999652
10 Mar 12:04    INFO Saving current best: saved/CVAE-CCPC-Mar-10-2021_11-56-05.pth
…
11 Mar 07:23    INFO Build [poem] DataLoader for [train]
11 Mar 07:23    INFO batch_size = [[64]], shuffle = [True]

11 Mar 07:23    INFO Build [poem] DataLoader for [evaluation]
11 Mar 07:23    INFO batch_size = [[64, 64]], shuffle = [False]

/home/textbox/anaconda3/envs/dyf/lib/python3.8/site-packages/torch/nn/modules/rnn.py:60: UserWarning: dropout option adds dropout after all but last recurrent layer, so non-zero dropout expects num_layers greater than 1, but got dropout=0.5 and num_layers=1
  warnings.warn("dropout option adds dropout after all but last "
11 Mar 07:23    INFO CVAE(
  (token_embedder): Embedding(27127, 300, padding_idx=0)
  (encoder): BasicRNNEncoder(
    (encoder): GRU(300, 500, num_layers=2, batch_first=True, dropout=0.5, bidirectional=True)
  )
  (decoder): BasicRNNDecoder(
    (decoder): GRU(300, 500, batch_first=True, dropout=0.5)
  )
  (dropout): Dropout(p=0.5, inplace=False)
  (vocab_linear): Linear(in_features=500, out_features=27127, bias=True)
  (loss): CrossEntropyLoss()
  (MLP_mean_linear1): Linear(in_features=2000, out_features=400, bias=True)
  (MLP_mean_linear2): Linear(in_features=400, out_features=300, bias=True)
  (MLP_logvar_linear1): Linear(in_features=2000, out_features=400, bias=True)
  (MLP_logvar_linear2): Linear(in_features=400, out_features=300, bias=True)
  (hidden_to_mean): Linear(in_features=3000, out_features=300, bias=True)
  (hidden_to_logvar): Linear(in_features=3000, out_features=300, bias=True)
  (latent_to_hidden): Linear(in_features=2300, out_features=500, bias=True)
)
Trainable parameters: 34636227
11 Mar 07:27    INFO epoch 0 training [time: 207.60s, train loss: 24.9559]
11 Mar 07:30    INFO epoch 1 training [time: 218.84s, train loss: 23.5173]
11 Mar 07:30    INFO epoch 1 evaluating [time: 4.53s, valid_loss: 21.982827]
11 Mar 07:30    INFO valid ppl: 3523875210.8795977
11 Mar 07:30    INFO Saving current best: saved/CVAE-CCPC-Mar-11-2021_07-23-31.pth
…
